ModelArtsPy38/model/model_weights.pt (torch, 3743 bytes, 5 tensors)

linear_relu_stack.0.weight f4 [20, 10]
000000 15 ac 86 bd fb 20 cb bd ea 95 b1 bd 84 5b 91 3d
       -0.06575791 -0.099184 -0.08671172 0.07097533
000010 d7 c5 80 bd ea c7 70 3e 82 3d 1e 3d 0a 1f 93 3d
       -0.06287735 0.23513761 0.038632877 0.071836546
000020 a1 be bc 3d 20 03 77 be 01 29 1d bd 37 02 9b 3e
       0.09216047 -0.24122286 -0.038369182 0.30275127
000030 08 95 d1 3c 4c d6 ee bd 3a cc 57 be 15 b4 d6 3d
       0.025583759 -0.11661968 -0.21074 0.10483567
000040 5f 38 0d 3e b0 02 a4 bb f8 fd 86 be 4d 76 42 3e
       0.13791035 -0.005005203 -0.26365638 0.1899044
000050 b3 03 45 be 70 43 4b be 08 d4 1f bd b4 ae d0 3d
       -0.19239692 -0.19849944 -0.039020568 0.10189572
000060 12 70 40 3e de c4 7b 3e 0e ee b7 bd 0c 5b d1 bd
       0.18792751 0.24586818 -0.08980952 -0.10222444
000070 20 aa 72 be c0 53 c6 3d af ed 87 bd 13 e8 9f 3e
       -0.2369771 0.09683943 -0.066371314 0.31231746
000080 71 ec b4 3d 85 3b 28 be df 2a a0 3d a5 fa 92 3e
       0.0883416 -0.16428955 0.07820677 0.28706852
000090 07 16 9e be 63 3e 1d 3d 11 78 a1 be 62 b4 77 be
       -0.3087618 0.038389575 -0.31536916 -0.24189904
0000a0 eb bb 89 be a7 6e 78 3e 68 de 57 be ec 5b 98 be
       -0.26901183 0.2426096 -0.21080935 -0.2975763
0000b0 43 c4 7d 3e 49 3f 3c be 3a 12 6c 3b 36 eb d7 bd
       0.24781899 -0.18383516 0.0036021606 -0.1054291
0000c0 f3 30 47 be c8 89 48 be b4 d8 5e be 9f b9 fb bd
       -0.19452266 -0.1958381 -0.21762353 -0.12291264
0000d0 40 3d 9c be 40 d6 7c 3d b6 cf 7f 3e da fb 4b 3e
       -0.3051548 0.061727762 0.24981579 0.19920292
0000e0 c4 36 26 3d c6 9d 8f be eb 4c 20 3e a4 a7 02 bd
       0.040579572 -0.2805006 0.15654342 -0.031898156
0000f0 6c 49 10 3e 82 a1 f4 bd de aa 15 3e d0 87 26 3d
       0.14090508 -0.11944868 0.14615962 0.040656865
000100 48 b5 33 be 74 8f 87 be 86 ac 1d 3e 9b 78 8a be
       -0.17549622 -0.26476634 0.15397844 -0.2704514
000110 a5 75 2d 3e d8 47 74 3e 80 53 94 be d2 bf 6a bd
       0.16939409 0.23855531 -0.28969955 -0.05731184
000120 df 5d 4d bc b9 76 85 3e 0e e1 66 3e 25 fc 87 3e
       -0.012534588 0.2606714 0.22546789 0.2655956
000130 cf 45 50 be 64 d6 a0 be 66 a1 1f 3e be b5 7f 3e
       -0.2033913 -0.31413567 0.15588912 0.24971673
000140 4c 46 82 3e 83 1b 6f bd 99 09 74 3e 41 b4 a0 3d
       0.25444257 -0.058375847 0.23831786 0.07846881
000150 f1 dd 08 be 5d 2a eb bd d3 9c 93 be a2 be 55 3d
       -0.13365914 -0.114826895 -0.28830585 0.052183755
000160 91 dd 38 3e 88 92 3b 3e 6a 83 2a be f2 fe a4 be
       0.18053271 0.18317616 -0.16651693 -0.32225758
000170 ad 79 8a 3e 75 d3 68 be be 7d e7 bd da 64 95 3e
       0.27045956 -0.22736914 -0.1130328 0.29178506
000180 ea dc e9 bd 5c a5 08 3e 75 d9 8b be 95 45 09 be
       -0.11419089 0.1334433 -0.27314344 -0.1340545
000190 06 03 7c 3e 58 83 ce bd 3f 0d 8c 3e d1 1d a2 3e
       0.24610528 -0.100836456 0.27353856 0.31663373
0001a0 3b 25 1b 3c 6f 6d 90 3d 38 00 53 be ad a3 cf 3d
       0.009469326 0.07052123 -0.20605552 0.101386406
0001b0 6b f4 0a be 5a 36 a5 bc bc f8 68 be 89 c2 47 be
       -0.135698 -0.020167518 -0.22751135 -0.19507803
0001c0 d1 e0 05 be 9d fa 48 be f0 cb 20 3e 20 1e 64 bd
       -0.13074042 -0.19626851 0.15702796 -0.055692792
0001d0 d2 60 b3 bd 34 f8 94 be 38 f1 dd bd ab e3 a1 3e
       -0.087587014 -0.29095614 -0.108370245 0.3161901
0001e0 9c 3c 4e be 59 51 bd 3d ec c0 84 3d 6b 0a 66 3e
       -0.20140308 0.092440315 0.064821094 0.22464912
0001f0 58 d3 0b 3e b4 47 15 be c0 83 50 bd d4 8f b5 3d
       0.1365484 -0.14578134 -0.050906897 0.08865324
000200 2a 6c 81 be c4 a3 44 bd ac c3 15 be 2f 42 4c be
       -0.25277835 -0.04800774 -0.14625424 -0.19947122
000210 88 6b 15 bd cf eb 09 bd 47 79 a0 be 57 b9 6b 3e
       -0.036479503 -0.03367215 -0.31342527 0.2301992
000220 07 90 9c 3e 18 c1 88 bd 16 13 6c bd 91 b3 9c 3e
       0.30578634 -0.06677455 -0.05763539 0.30605748
000230 02 fe 6e bc 30 89 5a be f9 9b 8c bd 84 30 d5 bd
       -0.014586927 -0.21341395 -0.06865687 -0.10409644
000240 2b 02 c2 3c be 9e 85 be a9 8d 6b 3e 90 5a c8 3d
       0.023682674 -0.26097673 0.23003258 0.097828984
000250 40 bb 8f 3e aa 58 87 bc b6 59 17 3d 70 22 6a bd
       0.28072548 -0.01652177 0.03695079 -0.05716175
000260 9e 41 a1 be 01 7a 40 3e 25 eb 2b bd aa d0 6f 3e
       -0.31495374 0.18796541 -0.0419723 0.23419443
000270 f7 e2 6b be 17 e3 81 3d da a7 36 3e d3 4b 6c 3e
       -0.23035799 0.06342142 0.17837468 0.230758
000280 eb f6 a3 3a d1 1f db bc fd 4d 87 3e 38 74 a8 3d
       0.00125095 -0.02674857 0.26426688 0.08225292
000290 e4 ed a2 3d 96 81 8f 3c c1 75 77 3e 98 10 16 3e
       0.0795553 0.017517846 0.24166013 0.14654768
0002a0 6f 59 b4 be 9b 0d c6 3d d2 cc 8e be ff 4b 40 3d
       -0.35224482 0.09670564 -0.2789064 0.046947476
0002b0 95 95 c0 bd 97 bc 3b 3e 14 53 6e 3e e5 f8 66 3c
       -0.094035305 0.1833366 0.2327388 0.014097427
0002c0 15 e9 c3 3d e3 74 44 3d 39 03 cb bd a3 b5 3d be
       0.09565941 0.047963034 -0.09912724 -0.1852632
0002d0 38 a9 4b be 36 72 86 3e 49 d4 73 3e 72 0c ab 3d
       -0.1988877 0.2625901 0.23811449 0.08351983
0002e0 9b 53 7c be a8 7c 2f 3c fd 31 71 bd 1d 47 46 be
       -0.24641268 0.010710873 -0.058885563 -0.19363065
0002f0 07 75 f9 3c fd b2 8e be 4d 7d 4b 3e ad 00 62 be
       0.03045131 -0.27870932 0.19872017 -0.2207057
000300 b6 4e d9 3d 91 48 8f be b5 33 5f bc ac 8f 52 be
       0.10610716 -0.2798505 -0.013623168 -0.20562619
000310 9e 76 7b bd 5b ad d3 3d 6e 9c 9d 3e cb 33 c4 bd
       -0.06139242 0.10335799 0.3078341 -0.09580191

linear_relu_stack.0.bias f4 [20]
000000 36 a4 6f be e1 99 28 bd 28 4f 8d be 27 d4 07 3e
       -0.23402485 -0.041162375 -0.27599454 0.13264523
000010 88 3a e5 3d 79 b6 06 be 4c 81 0c bd 9e a7 8b be
       0.111928046 -0.13155545 -0.034302995 -0.2727632
000020 51 1f 9d be 29 7a 50 3e ad 48 27 be 98 da 63 3d
       -0.30687955 0.203591 -0.16336317 0.05562839
000030 90 0b 90 3d e1 ba bb 3c 59 3a 6f be fb 64 02 3d
       0.07033455 0.02291626 -0.23362102 0.031834584
000040 97 99 3a be c6 f2 71 be d6 8a 61 be 99 66 29 3e
       -0.18222652 -0.23627767 -0.22025618 0.16543044

linear_relu_stack.2.weight f4 [5, 20]
000000 42 0b 45 be c2 80 b3 bd 58 9a 64 3e 2e 29 8c be
       -0.19242576 -0.08764793 0.22324502 -0.27375168
000010 f8 e3 1f 3e dc 1c 34 bd db fd d1 3b 0e 23 02 3e
       0.15614307 -0.043972835 0.0064084358 0.12708685
000020 99 e8 ac 3d d3 75 b3 bd 85 37 03 3e 2f 1e 08 be
       0.08442802 -0.087627076 0.12814148 -0.13292764
000030 51 23 96 bc c0 e0 ec 3d 9f 34 31 bd 3b 33 77 be
       -0.018327387 0.11566305 -0.043263074 -0.24140637
000040 f5 9f 0a 3d 38 4d 98 3d 3e 46 1d 3d 75 5f 84 3d
       0.033843953 0.07436603 0.038397066 0.064635195
000050 4d 72 22 bd 5c 12 08 3e 5a 44 2a 3e 53 30 27 3e
       -0.039659787 0.13288254 0.16627637 0.16327028
000060 16 41 e6 3d cc 74 d1 3d ce 76 e5 bd 78 f7 ed bc
       0.11242883 0.10227355 -0.11204301 -0.029048666
000070 2d 3e be bc 72 fe fa bd c5 46 91 3d 28 12 9a 3c
       -0.023223007 -0.12255563 0.07093576 0.018807486
000080 32 51 b2 3d fc 5f 29 3c f7 bd bd bd a5 78 38 bd
       0.08706893 0.010337826 -0.092647485 -0.04503693
000090 f3 55 04 3e ed a8 a5 3d 03 27 15 3e 0a 8e a9 bd
       0.12923412 0.08088861 0.14565663 -0.08279045
0000a0 34 2c 9b 3c cf e3 3f bc be 4c 8d bd c5 45 3a be
       0.018941976 -0.011712029 -0.06899403 -0.18190677
0000b0 d6 d4 39 3e 39 af 38 be 56 9c de 3d d7 1b 1b 3d
       0.18147597 -0.18035592 0.108696625 0.037868347
0000c0 30 54 14 be 41 83 50 bc 57 8f 23 be 20 93 00 3d
       -0.1448524 -0.012726606 -0.15972649 0.03139031
0000d0 98 a0 55 bd 34 4c 4e bd 75 04 07 3e 8b 9d b4 bc
       -0.052155107 -0.05036564 0.13185294 -0.022047779
0000e0 1c cd 16 3e ad 16 2b 3e 06 ff 04 3d f7 e2 88 bd
       0.1472668 0.16707869 0.03246977 -0.06683915
0000f0 df fd 32 bd 44 8e a0 bd fe 59 d1 bd e5 4b 2f be
       -0.04369914 -0.07839635 -0.10222243 -0.17118795
000100 97 61 5d be 80 9b 04 3d a2 75 90 bd 6a b8 4c 3e
       -0.21619259 0.03237486 -0.07053687 0.19992223
000110 ee 88 6f bd 7b d2 51 be 90 a3 58 be 17 18 35 be
       -0.058480196 -0.20490448 -0.21156144 -0.17684971
000120 35 dd 36 be ac a3 01 bd b8 77 3d be 89 24 1b be
       -0.17857821 -0.03165023 -0.185027 -0.15150656
000130 ac c3 75 3c c6 93 2c 3c b2 b9 1e be 7a 08 07 be
       0.015000265 0.010533279 -0.15500525 -0.13186827
000140 2e a3 e8 bc 45 e7 45 be b1 56 25 be 48 1e f5 3d
       -0.028398123 -0.19326504 -0.16146351 0.11968666
000150 d1 14 82 bd b3 12 92 bd 07 bd 40 3d bd 9f 05 be
       -0.06351627 -0.07132473 0.04705527 -0.13049217
000160 56 4a 34 3e 14 f2 54 be 3a bd 06 be 60 a6 dd 3c
       0.17606482 -0.2079547 -0.13158122 0.027056873
000170 71 26 25 be 3c a8 c8 bc 71 46 32 be 05 db 15 be
       -0.16127945 -0.024494283 -0.17409684 -0.1463433
000180 31 00 81 bd f3 c8 53 3e 7d e0 e0 3c de 72 2f 3e
       -0.06298865 0.20682125 0.027450794 0.17133662

linear_relu_stack.2.bias f4 [5]
000000 9e 29 14 3e af cd 02 be d9 de 7c 3d 37 c4 dc bd
       0.14469 -0.12773775 0.06173596 -0.107796125
000010 73 51 5b be
       -0.21417789

linear_relu_stack.4.weight f4 [1, 5]
000000 55 1f 1f be e6 b8 13 3e 51 63 8c be 2e 05 05 3e
       -0.15539296 0.14426002 -0.27419522 0.12990257
000010 e8 76 c3 bd
       -0.09544164
