ModelArtsPy38/model_weights2.pth (torch, 3807 bytes, 5 tensors)

linear_relu_stack.0.weight f4 [20, 10]
0.28986678 0.30100787 0.22388242 -0.19842646 -0.29522607 -0.15986134 -0.18826783 -0.030887935
-0.25579098 -0.14785914 -0.11957486 0.019094093 -0.09621606 0.17260602 0.28703192 -0.018219816
-0.26772726 0.05502543 -0.2443528 0.22312896 0.104239546 0.17393614 0.12016883 0.09581835
-0.16117185 -0.23685771 -0.033160347 0.1173645 -0.2824975 -0.016474178 -0.052166134 0.05761372
-0.18829963 -0.21750547 0.14440547 -0.05130871 -0.08086495 -0.024084505 0.026545906 -0.015703075
-0.07753664 -0.28407562 -0.038038548 -0.15966633 -0.18645659 -0.16699961 0.23280632 0.049614035
-0.25874802 0.017527021 -0.06482031 -0.12100252 0.19395135 -0.089047216 0.100282826 0.042242613
-0.08799612 -0.017650956 0.31926665 0.050277237 -0.04439961 -0.039764248 0.062472265 -0.15983771
-0.27616665 0.048398945 0.11281669 0.013104711 0.2607338 0.073548235 -0.10332736 0.26382813
-0.1753546 0.2136855 -0.21827903 0.12520951 0.032740705 0.01075192 -0.3927733 0.009477734
0.15926173 -0.019984543 0.2856678 -0.056903124 0.111359924 0.21728542 0.29718205 -0.28036729
-0.08092198 -0.23854214 0.2807562 0.14413726 -0.11978183 -0.2023984 -0.06787324 0.18259901
-0.23473988 -0.18708017 0.24765925 -0.03206721 0.25155023 0.0025233638 0.22260915 -0.24033104
-0.30605572 0.012785735 0.27006826 -0.029794123 0.1121536 -0.015914565 0.21260877 0.024588583
-0.30508944 0.22349484 -0.17205516 -0.0784697 -0.038382307 0.04702865 -0.12557666 -0.051029775
-0.05814117 -0.33447415 -0.14774178 0.13136177 0.28196588 0.07161969 0.21124546 0.07890553
0.13923486 0.17907523 -0.18741885 -0.026849205 -0.059941817 -0.2780911 0.119945906 0.048535593
-0.052579723 0.09428774 -0.21954882 0.17235327 -0.28082758 0.19166471 0.28306606 0.054009326
-0.037526973 0.14150082 -0.101299524 -0.3740609 0.18385613 0.28141004 -0.1452587 -0.26475197
0.030091664 0.19289654 -0.19478415 -0.25511977 0.28719062 0.07687966 -0.04358694 -0.21072519
-0.0396319 0.095616385 0.053241994 -0.035920594 0.102808505 -0.22414811 0.27251703 0.043539993
-0.08498426 -0.021755384 0.2578152 0.3302654 -0.037274733 0.29983342 -0.29599836 -0.19766682
0.12004808 -0.17535006 -0.2012328 0.124768585 0.14439999 -0.2686937 -0.19008735 0.10813731
-0.24683306 0.096813716 -0.06341499 0.10809062 -0.19188394 0.2271363 -0.0336833 -0.112699024
-0.087902345 0.2202147 0.28712925 0.2097941 0.07081305 0.049613837 -0.19458024 -0.14912957
00000000: 6b69 943e b41d 9a3e 6f41 653e 4e30 4bbe
00000010: df27 97be b1b2 23be 48c9 40be b208 fdbc
00000020: 09f7 82be 6368 17be aae3 f4bd 376b 9c3c
00000030: ed0c c5bd a2bf 303e d9f5 923e b941 95bc
00000040: 8c13 89be 5862 613d 9f37 7abe eb7b 643e
00000050: 8b7b d53d 511c 323e 131b f63d 693c c43d
00000060: 3c0a 25be d48a 72be 25d3 07bd cd5c f03d
00000070: 83a3 90be dbf4 86bc 28ac 55bd 5dfc 6b3d
00000080: 9ed1 40be c1b9 5ebe 07df 133e 1529 52bd
00000090: 869c a5bd de4c c5bc cd76 d93c bca3 80bc
000000a0: 88cb 9ebd 5c72 91be 4fce 1bbd 927f 23be
000000b0: 7aee 3ebe f201 2bbe c864 6e3e 1638 4b3d
000000c0: 9f7a 84be d494 8f3c 83c0 84bd 2bd0 f7bd
000000d0: 2f9b 463e 635e b6bd 1561 cd3d 9706 2d3d
000000e0: 4f37 b4bd bd98 90bc eb76 a33e 81ef 4d3d
000000f0: 5edc 35bd d6df 22bd ebe2 7f3d 7fac 23be
00000100: b765 8dbe f93d 463d 700c e73d 24b5 563c
00000110: e77e 853e 75a0 963d 4b9d d3bd 7b14 873e
00000120: 2890 33be 5fd0 5a3e 8a84 5fbe ec36 003e
00000130: 1e1b 063d d228 303c 9519 c9be 7f48 1b3c
00000140: 8215 233e a0b6 a3bc 0d43 923e 4013 69bd
00000150: ac10 e43d 1280 5e3e 3f28 983e 4d8c 8fbe
00000160: 6cba a5bd 6444 74be 47bf 8f3e b898 133e
00000170: 2d50 f5bd 8741 4fbe 2001 8bbd 3cfb 3a3e
00000180: a75f 70be f291 3fbe 639a 7d3e e858 03bd
00000190: 31cb 803e 055f 253b a7f3 633e 5719 76be
000001a0: 56b3 9cbe 427b 513c 6346 8a3e ce12 f4bc
000001b0: c9b0 e53d 435f 82bc 1db6 593e ff6d c93c
000001c0: af34 9cbe d5db 643e 3a2f 30be b9b4 a0bd
000001d0: c436 1dbd 1da1 403d 2b97 00be 9904 51bd
000001e0: 6f25 6ebd 3240 abbe 9f49 17be b383 063e
000001f0: d55d 903e 58ad 923d bb50 583e 3999 a13d
00000200: 9593 0e3e 7f5f 373e baea 3fbe ddf2 dbbc
00000210: 8d85 75bd f561 8ebe 33a6 f53d 42cd 463d
00000220: d65d 57bd ee19 c13d 68d1 60be 607d 303e
00000230: a2c8 8fbe c143 443e 09ee 903e e238 5d3d
00000240: e2b5 19bd 97e5 103e 2076 cfbd e984 bfbe
00000250: c844 3c3e fa14 903e b2be 14be 928d 87be
00000260: cb82 f63c ac86 453e 7f75 47be 0f9f 82be
00000270: a60a 933e 1573 9d3d 3888 32bd 58c8 57be
00000280: 0f55 22bd 86d2 c33d 4714 5a3d 7921 13bd
00000290: 448d d23d 1587 65be 5a87 8b3e fe56 323d
000002a0: 3a0c aebd 5938 b2bc 5b00 843e 8c18 a93e
000002b0: 64ad 18bd c483 993e 198d 97be 2c69 4abe
000002c0: c5db f53d f78e 33be f90f 4ebe ac86 ff3d
000002d0: 97dd 133e 3892 89be 42a6 42be 1877 dd3d
000002e0: cec1 7cbe 4546 c63d b8df 81bd 9d5e dd3d
000002f0: 397d 44be 6b96 683e 80f7 09bd bfce e6bd
00000300: 2506 b4bd f67f 613e 9b02 933e 44d4 563e
00000310: 6f06 913d e137 4b3d 0b40 47be 6cb5 18be

linear_relu_stack.0.bias f4 [20]
0.06940153 -0.01930298 -0.2830758 0.22490223 -0.18916029 -0.13508995 -0.015446836 0.033509836
-0.04648578 -0.050990716 0.192983 0.14501166 -0.25574198 -0.2724385 -0.058194973 -0.0047376775
-0.1258341 -0.14727807 0.24424972 -0.26612553
00000000: 6422 8e3d 4821 9ebc 50ef 90be c54c 663e
00000010: 3cb3 41be 0555 0abe ba14 7dbc 9c41 093d
00000020: e067 3ebd a4db 50bd 569d 453e f07d 143e
00000030: 9df0 82be 0f7d 8bbe da5d 6ebd 853e 9bbb
00000040: a8da 00be 10d0 16be 991c 7a3e 9b41 88be

linear_relu_stack.2.weight f4 [5, 20]
0.14570531 0.15034273 -0.28065115 -0.076637916 -0.16864711 -0.17601502 -0.1817078 0.148566
0.2007969 -0.21686651 0.14191987 0.122719504 0.14583108 0.07232476 0.026658464 -0.08314014
-0.122214615 0.035383355 -0.22169 0.17173484 0.101261936 0.12837903 -0.11042284 0.18766865
0.112685174 -0.09336521 0.01888654 0.14111546 -0.12389918 0.030013077 -0.054753337 -0.08130755
-0.19161892 -0.091006584 -0.19558877 0.15680945 -0.06950097 0.086130016 -0.018053405 -0.02849414
0.10817515 0.044206314 0.125574 -0.016025491 0.15751816 -0.070581235 -0.03687704 0.118983954
-0.14776543 0.06984222 -0.019097142 0.058053542 -0.08914285 0.06562129 -0.17613024 -0.15514165
0.0636483 0.26373407 -0.11067094 -0.10925952 0.19166417 -0.028481554 -0.16784818 -0.20408368
-0.02117898 0.099145174 0.11514852 0.036121406 0.010074317 -0.019301053 -0.19899379 -0.19990294
0.056975942 -0.025773248 0.20404996 -0.16569656 -0.10287133 0.21829829 -0.1131038 0.1140432
-0.2157471 0.06320716 -0.14251322 -0.116517395 0.13214207 0.00072669657 -0.22855899 0.04167173
-0.16085419 -0.06868053 -0.12572591 -0.22049971 -0.1817177 -0.08046406 0.07375319 0.018782957
-0.17932 -0.119157754 0.19474159 0.12500614
00000000: c633 153e 72f3 193e 82b1 8fbe 57f4 9cbd
00000010: d4b1 2cbe 483d 34be 9c11 3abe af21 183e
00000020: b49d 4d3e 4112 5ebe 7153 113e 5d54 fb3d
00000030: be54 153e 011f 943d da62 da3c 6145 aabd
00000040: a84b fabd 23ee 103d b402 63be 42db 2f3e
00000050: 6b62 cf3d cb75 033e 5f25 e2bd 362c 403e
00000060: 7cc7 e63d 4236 bfbd f2b7 9a3c 9280 103e
00000070: dabe fdbd fcdd f53c 0945 60bd 9384 a6bd
00000080: c037 44be a961 babd 6c48 48be a892 203e
00000090: 8656 8ebd ef64 b03d bce4 93bc 8b6c e9bc
000000a0: ef8a dd3d ae11 353d 7896 003e e447 83bc
000000b0: 714c 213e e58c 90bd 610c 17bd dcad f33d
000000c0: d24f 17be 7009 8f3d 9c71 9cbc 8dc9 6d3d
000000d0: 8790 b6bd 7464 863d 7c5b 34be 74dd 1ebe
000000e0: 0a5a 823d 2708 873e 72a7 e2bd 75c3 dfbd
000000f0: 9d43 443e 2652 e9bc 65e0 2bbe 50fb 50be
00000100: 8a7f adbc a00c cb3d fdd2 eb3d 0af4 133d
00000110: c00e 253c 3e1d 9ebc 07c5 4bbe 5bb3 4cbe
00000120: 9b5f 693d 6b22 d3bc 79f2 503e 5cac 29be
00000130: 34ae d2bd 9689 5f3e f7a2 e7bd 7b8f e93d
00000140: cfec 5cbe c172 813d fcee 11be aca0 eebd
00000150: 4050 073e c87f 3e3a 5e0b 6abe faaf 2a3d
00000160: f6b6 24be 61a8 8cbd 4bbe 00be adca 61be
00000170: 3414 3abe 57ca a4bd ea0b 973d b7de 993c
00000180: a99f 37be fb08 f4bd 576a 473e 9c01 003e

linear_relu_stack.2.bias f4 [5]
-0.12009108 0.035668563 -0.23234668 0.19507363 0.04998489
00000000: 50f2 f5bd 3319 123d 4aec 6dbe 62c1 473e
00000010: f5bc 4c3d

linear_relu_stack.4.weight f4 [1, 5]
-0.3504126 0.054526098 0.18017702 0.076157376 0.37199757
00000000: 4869 b3be c256 5f3d 5380 383e 66f8 9b3d
00000010: 7776 be3e
