ModelArtsPy38/model_weights.pth (torch, 3807 bytes, 5 tensors)

linear_relu_stack.0.weight f4 [20, 10]
000000 9b d9 33 be d3 ee 1f 3e 89 84 ba 3d b4 10 c3 3a
       -0.17563479 0.15618448 0.0910731 0.0014882297
000010 d9 44 84 3e bb 58 3f 3e f8 ca 91 3e 18 f1 43 be
       0.25833777 0.18686192 0.28475165 -0.19134939
000020 ed 35 48 3e f1 e1 88 3e 5b c3 83 be 43 ed 8d 3e
       0.19551821 0.2673488 -0.25734982 0.2772008
000030 93 a5 8a 3e 41 99 6d bd 96 16 f6 3d fa 34 48 3e
       0.27079448 -0.058007482 0.12016027 0.19551459
000040 44 18 26 3e 7f 5f ea 3d f1 ae bf be 55 bc 81 3e
       0.16220194 0.11443996 -0.37438157 0.25338998
000050 b6 42 b9 bd a6 ea 55 bd e4 41 f1 bd 0e 84 0c 3e
       -0.09045927 -0.05222573 -0.11780146 0.1372225
000060 20 5c ab bd d8 04 b2 3d 88 b2 13 3e 98 f3 7b bd
       -0.08367181 0.0869233 0.14423573 -0.061511606
000070 4a 43 9e be 91 93 80 3e d0 b4 23 3e 88 02 e8 bd
       -0.30910712 0.25112584 0.15986943 -0.11328608
000080 80 be 23 bc 00 85 8d bc 18 ce 15 bd 78 bc 8d be
       -0.009994149 -0.017275333 -0.0365735 -0.27682853
000090 e7 63 a1 3e 22 c4 6d be e6 88 6e be 80 70 b2 3d
       0.31521532 -0.2321935 -0.2329441 0.08712864
0000a0 9b c2 8f 3e 20 96 50 bd b4 e5 28 3d 32 64 0a be
       0.2807816 -0.05092442 0.041234687 -0.13514784
0000b0 6e c2 4b 3e 91 41 99 be 36 77 0f bc eb a2 eb 3b
       0.19898388 -0.29932836 -0.008756449 0.007191052
0000c0 1a 7d a9 3e 65 4d 9b be bc 44 dd bc de 7f 98 be
       0.33103257 -0.30332485 -0.027010314 -0.29785055
0000d0 2f c9 52 be 71 09 64 be c5 7d 82 be de f7 95 3e
       -0.20584558 -0.22269227 -0.2548658 0.2929067
0000e0 43 b8 35 3e 7e fa 9e 3c 62 c3 b0 3e a3 8f bc bd
       0.17746072 0.019406553 0.34524065 -0.09207084
0000f0 65 1f 30 3e a4 11 0b bc b9 1b b0 bd c2 2f 9a bc
       0.17199476 -0.008488093 -0.08599038 -0.0188216
000100 f7 f2 9d bc be 23 62 3d 47 39 17 3e 07 a2 c8 bc
       -0.019280894 0.055209868 0.14767943 -0.024491323
000110 27 cf f5 3d 47 44 3c 3e 75 89 88 3e de 3a 86 3d
       0.12002402 0.1838542 0.2666737 0.06554197
000120 bc 52 12 bd 00 0d 20 bd cf 34 08 bd 29 6f 30 3e
       -0.035723433 -0.039074898 -0.033253487 0.17229904
000130 52 0c c2 bd 7b cf ee 3c 9e f2 9c bd 69 93 7a be
       -0.09475006 0.029151669 -0.07663463 -0.24470295
000140 12 9a 7d be bb ff 70 be 0a 8d 28 bd 0f dc 80 be
       -0.24765804 -0.23535053 -0.04115013 -0.2516789
000150 38 fc be 3d 04 66 6a 3d d1 99 8a be af 7a 1a 3e
       0.09325451 0.057226196 -0.27070478 0.15085863
000160 c3 d7 91 3e da 04 21 3e 67 9f 56 3b 40 fd 05 3e
       0.28484926 0.15724507 0.003274882 0.13084888
000170 be 87 15 be 68 4e 55 be 19 89 6f be e2 18 83 be
       -0.14602563 -0.20830691 -0.23392142 -0.25604922
000180 cd cd a5 3d e4 9c 25 be 29 ba 31 be f7 f5 48 3e
       0.08095894 -0.1617313 -0.1735617 0.19625078
000190 52 5a e7 3d 01 65 81 3e 4e 64 6e 3e 1d 3d 79 be
       0.11296524 0.25272372 0.2328045 -0.24339719
0001a0 3d 68 93 3e 7d 77 81 3e 1e 4b 12 3d 1b 6f e3 bd
       0.28790465 0.25286475 0.03571617 -0.11105176
0001b0 fb c1 87 be 14 28 8c 3e 98 12 47 bd f2 11 4b be
       -0.26515183 0.27374327 -0.048601717 -0.19831064
0001c0 40 ae fe 3c 1f 56 31 be c4 ac 84 be 47 98 9f be
       0.031088948 -0.17318009 -0.2591306 -0.31170866
0001d0 00 91 ce 3c 84 fb 7a be 44 bd 9f be 81 60 91 be
       0.025215626 -0.24510008 -0.31199086 -0.2839394
0001e0 ec 7e 74 be 89 1c a6 3e 1f a6 c1 3d d0 f7 2c be
       -0.23876542 0.32443646 0.09455513 -0.16891408
0001f0 29 df a6 3c 7f 06 42 3e c7 a5 14 3e f5 55 99 3c
       0.020370083 0.1894779 0.14516364 0.018717745
000200 7d 3e d9 be 2b b3 97 3e d3 4e a0 3e 76 e5 6c 3e
       -0.42430487 0.29628882 0.31310138 0.23134407
000210 31 74 85 3e 76 a3 17 be 26 58 4d be 60 98 26 3e
       0.2606521 -0.14808449 -0.20053157 0.16269064
000220 51 b1 06 3e 49 b5 cb bd 5f a5 c4 3c b9 8e 9c be
       0.13153578 -0.09946687 0.024004636 -0.3057764
000230 85 47 83 be ff 64 7a be 69 bb 87 3d 7b cc 9d bb
       -0.25640503 -0.2445259 0.066275425 -0.0048156357
000240 4a b8 20 be 68 d6 5a 3e 95 07 42 be 9b 1e 71 bd
       -0.156953 0.21370852 -0.18948205 -0.05886708
000250 39 94 22 3e 28 6f 51 3e 31 da 67 be 9b f3 58 be
       0.15876855 0.20452559 -0.22641827 -0.21186678
000260 a8 0f 58 be d2 04 4f 3e 7f 5b 54 be 56 94 6d 3e
       -0.21099722 0.20216683 -0.20738028 0.23201117
000270 7c 7b 28 3e ac 28 93 be 96 9a 9a be 38 66 5c be
       0.16453356 -0.28741968 -0.30196065 -0.21523368
000280 09 7b 39 be a1 ff 1c 3e 42 f9 13 3e 9e ca 6c bd
       -0.1811334 0.1533189 0.14450553 -0.05781042
000290 95 ab 08 3e e0 48 83 be 1f fb 8f be ca 25 3a 3d
       0.13346703 -0.25641537 -0.28121278 0.045446195
0002a0 50 7a ff bd 95 be 0b 3d b1 55 4c be 51 c1 a4 3c
       -0.12474501 0.0341173 -0.19954564 0.020111712
0002b0 b3 80 33 be 58 c5 56 3e 6c 59 7d bd e8 b6 e9 3d
       -0.17529564 0.20973718 -0.061852857 0.1141184
0002c0 a2 30 61 3e 3e 99 9a bd 37 07 2a 3c 2f d6 74 3e
       0.21991208 -0.0754876 0.010377697 0.2390983
0002d0 70 00 03 3d 39 8c 63 be 8d 4c fd 3c 99 30 60 3e
       0.03198284 -0.2222146 0.030920291 0.21893539
0002e0 a3 25 87 be 57 e8 18 be 31 91 99 3d 3e a1 3f be
       -0.26395902 -0.1493238 0.07498396 -0.18713853
0002f0 9a 78 81 3e 59 20 80 3e c4 a6 91 be 50 6f 66 be
       0.25287324 0.2502468 -0.28447545 -0.225034
000300 c9 a6 84 be 93 14 93 be 8a 57 72 3e 92 81 61 be
       -0.25908497 -0.28726634 0.23666206 -0.22022083
000310 91 a2 ed bd 00 2b 94 be 26 d3 37 3e 12 1c a0 be
       -0.11603273 -0.28939056 0.1795164 -0.31271416

linear_relu_stack.0.bias f4 [20]
000000 93 f9 82 be 25 fa 43 3e 26 d7 5f be 60 2c 35 3e
       -0.25581035 0.19138391 -0.21859416 0.17692709
000010 83 a9 56 be 93 a1 ee 3d a9 f6 5a be 1b d4 29 be
       -0.20963101 0.116519116 -0.21383156 -0.16584818
000020 d9 57 3c be 36 f7 96 3d d1 7b 64 3e 5d 08 88 3e
       -0.18392886 0.073713705 0.22312857 0.2656888
000030 d0 51 fe 3d 55 0f 8d 3d a2 48 61 be 20 d7 98 bc
       0.12417948 0.0688769 -0.22000363 -0.018657267
000040 25 c1 29 be b8 e2 8b 3e d1 5c 9d 3e fe 95 34 3d
       -0.16577585 0.2732141 0.30734876 0.044088356

linear_relu_stack.2.weight f4 [5, 20]
000000 53 6f cf bd 79 53 0a be 64 94 04 be 10 21 91 bc
       -0.10128655 -0.13508405 -0.12947232 -0.01771596
000010 ba 1e 45 be 70 5f 90 3d a1 1d ff 3c 6b cb bf 3c
       -0.19250003 0.07049453 0.031142058 0.023412427
000020 81 e2 ed bc 1a 82 56 3e 89 d8 88 3d 08 ca d7 3d
       -0.02903867 0.20948067 0.06681926 0.10536581
000030 4f 68 61 be 9e ef da bd 98 07 da 3d 66 d2 22 3e
       -0.22012447 -0.106902346 0.1064598 0.15900573
000040 4d c3 f9 bd 6d ef 49 be 42 a7 52 3e 3c 14 64 3e
       -0.12195454 -0.1972024 0.20571616 0.22273344
000050 0d 9b 08 3e 54 45 5e be 58 cc 8b 3d c2 db 2a be
       0.13340397 -0.21706134 0.06826085 -0.16685393
000060 f3 ce 48 be 3b cc d9 bd 42 64 e2 bd 31 7b 1a 3e
       -0.19610195 -0.10634657 -0.11054279 0.15086056
000070 ff b9 a0 bd 71 f6 37 3e fd d2 8a 3d 50 6e ab bd
       -0.07847976 0.17965104 0.06778524 -0.0837065
000080 5e ea fe 3b 5f f9 26 3e df 16 a9 bd 86 2e 24 3e
       0.0077794036 0.16306065 -0.082563154 0.16033372
000090 a4 fb 95 bd bc 10 f0 3d e4 d5 0f 3c a8 f0 27 3e
       -0.07323387 0.11721942 0.008779023 0.16400397
0000a0 4a d9 5c bc a6 11 08 be f4 c8 af bd e1 ff 4c be
       -0.01347954 -0.13287982 -0.08583251 -0.20019485
0000b0 77 d4 11 3d f7 da 50 3d 55 6c 45 3e 1a 3c 81 3c
       0.035603013 0.05099007 0.19279607 0.015775729
0000c0 2b a5 da bd 19 f2 0b 3e 9f b8 41 3e 34 e9 2e be
       -0.106760345 0.13666572 0.18918084 -0.17081147
0000d0 42 c7 d1 bd 67 cd 1c 3d 8f 66 0d 3e 64 bc c2 bd
       -0.102430835 0.038281824 0.13808654 -0.09508589
0000e0 7b 9b 81 be 2a 7e 62 be 50 ed e4 3d 16 0b de 3d
       -0.25313935 -0.2211844 0.11178076 0.10841958
0000f0 84 4e bf bc 09 40 67 be e1 e8 0e bc 5a 28 3b be
       -0.023352869 -0.22583021 -0.008722515 -0.18277112
000100 38 f3 95 3d ad 15 d2 bb d0 be 9c bd 31 e1 d8 bc
       0.07321781 -0.0064112754 -0.07653582 -0.026474567
000110 90 a1 75 be 21 29 ae bc db ff a1 bd 06 b1 b7 bd
       -0.23987412 -0.021259846 -0.07910129 -0.089693114
000120 86 13 04 3e b2 1d 6a be b7 b3 1e 3d f5 8c ee bd
       0.12898073 -0.2286289 0.03874561 -0.11647979
000130 f6 26 c9 3d 8b 0f c4 3d 3e 62 a7 3c 93 38 32 be
       0.09821884 0.09573277 0.020432588 -0.17404394
000140 f8 c0 37 3e f6 73 27 3e 3e 2d 16 3e 08 09 7c 3d
       0.17944705 0.1635283 0.14665696 0.06153205
000150 ae ef 92 bd 92 19 47 be 0f c4 27 be 28 76 50 3d
       -0.071746215 -0.19443348 -0.16383384 0.050893933
000160 4e 9d be bd 2e 6b 49 3c aa 02 42 3e da 49 53 3e
       -0.09307347 0.01229362 0.18946329 0.20633641
000170 ef 52 2c 3e 28 c5 76 bd cf 90 26 3e da a7 27 be
       0.16828512 -0.060246617 0.16266178 -0.16372624
000180 86 62 e8 3d 98 fd 89 3d 06 17 93 bd 58 18 d1 bc
       0.11346917 0.06737822 -0.07182126 -0.025524303

linear_relu_stack.2.bias f4 [5]
000000 53 fc bd bd e4 16 fd bd 85 4b d9 bd 74 8a 4b 3e
       -0.09276643 -0.12357882 -0.10610107 0.19877034
000010 06 47 0b bd
       -0.03400328

linear_relu_stack.4.weight f4 [1, 5]
000000 71 76 4a 3e 4a a5 89 be 52 6b 29 3e b5 44 53 3e
       0.19771744 -0.26883918 0.16544846 0.20631678
000010 89 bb 15 3e
       0.1462232
