ModelArtsPy38/model/model/model_weights.onnx (onnx, 1859 bytes, 5 tensors)

linear_relu_stack.0.bias f4 [20]
0	0xbd7bff47	-0.06152275
1	0xbd885e24	-0.06658581
2	0xbe5e5f04	-0.21715933
3	0x3da6fbb6	0.08153479
4	0x3dd8973e	0.10575722
5	0xbd77e585	-0.06052162
6	0xbcc0e415	-0.023546258
7	0xbb525db2	-0.0032099304
8	0x3db6e3da	0.08930178
9	0xbd91cb8c	-0.071189016
10	0x3e514b99	0.20438994
11	0x3e831ff9	0.2561033
12	0x3e6c177e	0.23055837
13	0xbe13a4ca	-0.14418331
14	0x3e95dd73	0.29270515
15	0xbe87b9a4	-0.2650882
16	0xbe0e898e	-0.1391966
17	0xbe6e0525	-0.2324415
18	0x3b81c34f	0.00396005
19	0x3e69c303	0.22828297

linear_relu_stack.2.bias f4 [5]
0	0xbe2256b8	-0.15853393
1	0x3dc0127b	0.09378525
2	0x3e149a97	0.14512096
3	0xbe2622ec	-0.16224259
4	0x3df59f60	0.11993289

18 f4 [10, 20]
0	0x3e890313	0.26760158
1	0xbdfb3d55	-0.122675575
2	0xbcea6181	-0.028610947
3	0x3e31c543	0.17360406
4	0xbe786f35	-0.24261172
5	0xbd076687	-0.033056762
6	0x3e887ceb	0.26657805
7	0x3bf578f6	0.0074912263
8	0xbdd2e69b	-0.10297891
9	0x3e2057f7	0.15658556
10	0x3e353cf4	0.17699033
11	0x3d846a5a	0.064655975
12	0xbe125ec9	-0.1429397
13	0xbe39ee05	-0.18157203
14	0xbe42febd	-0.19042487
15	0xbe71b147	-0.23602782
16	0xbdf24fe5	-0.11831645
17	0x3e565e5f	0.20934437
18	0x3e9a9c84	0.30197537
19	0xbd3a337d	-0.04545926
20	0xbd792c18	-0.060833067
21	0x3dc0e523	0.09418704
22	0xbe1d037a	-0.15333357
23	0x3e11da43	0.14243416
24	0xbee88a3e	-0.4541797
25	0xbc3e2327	-0.011605061
26	0x3aa19cb2	0.0012330024
27	0xbeeffe94	-0.46873915
28	0xbe6c176c	-0.2305581
29	0xbe48561d	-0.195641
30	0xbdc3a140	-0.0955224
31	0xbe1c734b	-0.15278356
32	0xbe91a877	-0.2844884
33	0x3c8d9d48	0.017286912
34	0xbdafba68	-0.08580476
35	0x3e46accf	0.19401859
36	0xbe875e74	-0.2643925
37	0xbe24d5c0	-0.16097164
38	0x3eb84425	0.3598949
39	0x3e0fd1b0	0.14044833
40	0x3df8d260	0.12149501
41	0x3e1190a9	0.1421534
42	0x3cc30ce1	0.023809852
43	0xbe616716	-0.2201198
44	0x3e0d6253	0.13807039
45	0xbe6b6221	-0.22986652
46	0xbdf72b10	-0.120687604
47	0xbe084137	-0.13306127
48	0xbd342a5f	-0.04398572
49	0x3db5ce48	0.08877236
50	0x3e8eb1e3	0.27870092
51	0x3e4dd9ae	0.2010257
52	0x3db4e854	0.088333756
53	0xbe330dc2	-0.17485717
54	0xbd7288bb	-0.059212428
55	0x3da468a8	0.08027774
56	0x3cb4945e	0.022043403
57	0x3e578565	0.2104698
58	0xbe96ef0a	-0.29479247
59	0x3e127286	0.143015
60	0xbdab12f4	-0.083532244
61	0xbd09363b	-0.033498984
62	0x3e78a3fe	0.24281308
63	0xbca21a6c	-0.01978799
64	0x3e628992	0.22122791
65	0x3dc85d2d	0.09783397
66	0xbd766ad6	-0.06016048
67	0xbe18fe61	-0.14940788
68	0xbe78fcb2	-0.24315146
69	0x3e833a3b	0.25630364
70	0x3e4b1f0e	0.19836065
71	0xbe3d95ca	-0.18514171
72	0xbdeb6948	-0.1149469
73	0xbe036838	-0.12832725
74	0xbe593115	-0.2121013
75	0x3dad850c	0.08472642
76	0xbe770421	-0.24122669
77	0x3d5ca6fc	0.053870186
78	0x3e2bcc7b	0.16777222
79	0xbd901ae2	-0.070363775
80	0x3e1ff7c0	0.15621853
81	0xbe220f95	-0.15826257
82	0x3cf83120	0.030296862
83	0xbe42e895	-0.19034036
84	0xbd6aafe9	-0.057296667
85	0xbde644f4	-0.112436205
86	0xbd3f265f	-0.046667453
87	0xbdd81dd8	-0.10552567
88	0x3d855c87	0.06511789
89	0xbdfe0d34	-0.12404862
90	0x3e8bd5db	0.27311596
91	0x3e843e89	0.2582896
92	0x3e215f2c	0.15758961
93	0xbe87ec18	-0.26547313
94	0x3deccf80	0.11563015
95	0x3dae64dd	0.08515332
96	0xbd0f7911	-0.035027567
97	0xbd89cc08	-0.06728369
98	0x3e94bed3	0.29051837
99	0x3db87a58	0.0900771
100	0xbe6bc1e4	-0.23023182
101	0x3e8ddf60	0.27709484
102	0xbcb17d32	-0.021666143
103	0xbda9d21f	-0.082920305
104	0x3e51f751	0.205045
105	0xbd5cb357	-0.05388197
106	0x3e26c52a	0.1628615
107	0xbe9a56b1	-0.30144265
108	0x3e14ad31	0.14519192
109	0x3e1b1333	0.15144043
110	0x3e625a81	0.22104837
111	0x3e68ec97	0.22746502
112	0xbe9ff1bb	-0.31239113
113	0xbc5d6d4b	-0.013514827
114	0x3e320f0b	0.17388551
115	0x3e699ebb	0.22814457
116	0xbe8d610d	-0.27613106
117	0x3e0625c7	0.13100348
118	0xbea154a8	-0.315099
119	0xbdef3ea3	-0.11681869
120	0xbbdc3b8c	-0.0067209657
121	0x3d52c953	0.05146153
122	0x3e274eb7	0.16338621
123	0x3cc3d834	0.023906805
124	0xbe072256	-0.13196692
125	0x3e951da7	0.29124185
126	0xbe28cf43	-0.16485314
127	0xbe1c8e0c	-0.15288562
128	0xbcef89c6	-0.0292405
129	0xbd2e567b	-0.042562943
130	0x3e2a720b	0.16645066
131	0x3e8d3b0e	0.27584118
132	0xbe23df47	-0.16003142
133	0x3e8b1dba	0.27171117
134	0x3e61346f	0.21992658
135	0xbe501e97	-0.20324169
136	0x3e4951db	0.19660132
137	0xbdc3ffd8	-0.09570283
138	0xbe0866eb	-0.1332051
139	0xbd9055ce	-0.07047616
140	0xbe28ba4c	-0.16477317
141	0xbe43aa14	-0.19107848
142	0xbf052f07	-0.52024883
143	0x3e8070e9	0.25086144
144	0xbf1d6e06	-0.6149601
145	0xbde0ae3d	-0.10970733
146	0x3e032932	0.12808684
147	0xbef0c366	-0.47024077
148	0xbf297a41	-0.6620217
149	0xbe5ef4d1	-0.21773078
150	0xbd16b3fa	-0.036792733
151	0xbecafd60	-0.39646435
152	0xbe9daf88	-0.30797982
153	0xbe95333c	-0.2914065
154	0xbf0250ce	-0.5090455
155	0xbe95509d	-0.29163066
156	0x3da74741	0.081678875
157	0xbde290c7	-0.1106277
158	0xbe2fa6de	-0.17153499
159	0xbe2e3918	-0.17013967
160	0xbe0e13cd	-0.13874741
161	0xbc5fa284	-0.013649587
162	0xbe7016a8	-0.23446143
163	0xbd6c3d38	-0.05767557
164	0xbe23ba9c	-0.15989155
165	0x3ddefbde	0.108878836
166	0xbeaf48e3	-0.34235296
167	0xbd138f7e	-0.036025517
168	0xbd87d551	-0.06632484
169	0x3e75b4d2	0.23994759
170	0xbdf961e1	-0.12176872
171	0xbc4fe0b8	-0.0126878545
172	0xbd1b4c48	-0.037914544
173	0xbe52f9f2	-0.20603159
174	0xbed13db7	-0.40867397
175	0x3d82d00c	0.06387338
176	0x3e920eb6	0.2852685
177	0x3de123d3	0.10993161
178	0xbb905c05	-0.004405501
179	0xbea102fd	-0.31447592
180	0x3e39ea82	0.18155864
181	0x3cacc4f8	0.021090016
182	0x3e96e916	0.29474705
183	0xbe1b7dd7	-0.15184723
184	0x3cd19a09	0.025586145
185	0x3e9ed948	0.31025147
186	0xbe3dca67	-0.18534242
187	0x3e027351	0.12739302
188	0x3e487040	0.1957407
189	0xbe9c7217	-0.30555794
190	0xbc780000	-0.015136719
191	0xbe8feadc	-0.2810887
192	0x3e0bc2c0	0.1364851
193	0xbac7cac5	-0.0015242925
194	0xbe174caf	-0.14775346
195	0xbe8f8ac4	-0.28035557
196	0xbe190a46	-0.14945325
197	0x3e97010d	0.2949299
198	0x3deac766	0.114638135
199	0xbe2a3468	-0.16621554

19 f4 [20, 5]
0	0xbf044119	-0.5166183
1	0xbe8e421e	-0.27784818
2	0x3e1bc86d	0.15213175
3	0xbd3d8d9a	-0.04627762
4	0x3ebbea0b	0.36701998
5	0xbf3d4164	-0.73927903
6	0xbeee1f19	-0.465081
7	0xbe645e5a	-0.22301617
8	0x3e617ad4	0.22019511
9	0x3e215810	0.1575625
10	0xbe7988c0	-0.24368572
11	0xbef3e6a6	-0.47636908
12	0xbe4ea5e8	-0.20180476
13	0x3de201e2	0.11035515
14	0xbe5f730a	-0.21821228
15	0xbf14d5f0	-0.5813894
16	0xbeea2af2	-0.4573589
17	0xbcd2ee9c	-0.025748543
18	0xbf78699b	-0.9703614
19	0xbfe7796d	-1.8083931
20	0xbe84310a	-0.25818664
21	0xbf005a58	-0.50137854
22	0x3cde454b	0.02713265
23	0xbea08e01	-0.3135834
24	0xbf534a2e	-0.82535064
25	0xbee600f8	-0.44922614
26	0xbe5b51a5	-0.21417864
27	0xbd8c8c0c	-0.06862649
28	0xbdd79b2b	-0.10527643
29	0x3ec9769d	0.39348307
30	0xbdf3dc5c	-0.119072646
31	0xbdd23107	-0.102632575
32	0xbe146ce0	-0.14494658
33	0xbe38d373	-0.18049411
34	0xbdcf83a3	-0.101325296
35	0xbedbdfad	-0.4294409
36	0xbede80c8	-0.43457627
37	0xbba6669e	-0.005078151
38	0xbe6bee86	-0.23040208
39	0xbeb4ff70	-0.35351133
40	0xbef91ca3	-0.4865466
41	0xbe8b44cf	-0.27200934
42	0xbe100a91	-0.14066531
43	0x3e9766c6	0.29570597
44	0x3ed659e8	0.41865468
45	0x3de5d378	0.11221975
46	0x3e0d455c	0.1379599
47	0x3d826c22	0.06368281
48	0x3e542516	0.20717272
49	0xbdc39da6	-0.095515534
50	0xbd82fda3	-0.063960336
51	0x3d14099a	0.03614197
52	0xbd0fa357	-0.035067882
53	0x3e1d05cb	0.15334241
54	0x3e4f48f6	0.20242676
55	0xbd4fd170	-0.050736845
56	0xbdbe4d96	-0.09292142
57	0x3d9c199c	0.07622072
58	0xbbe70fa0	-0.007051423
59	0xbd20ef72	-0.039290853
60	0x3caf1dc0	0.02137649
61	0x3daceda0	0.08443761
62	0x3dcf5ee0	0.10125518
63	0x3dff5298	0.124669254
64	0x3cfd5e60	0.03092879
65	0xbe97ea9a	-0.29671174
66	0xbf0b74de	-0.544752
67	0x3de72232	0.11285819
68	0xbdd5df85	-0.104430236
69	0xbe1a1294	-0.1504615
70	0xbf1b6974	-0.60707784
71	0xbf084bc2	-0.532406
72	0xbe3aedee	-0.18254825
73	0xbf2473ac	-0.64239
74	0xbfbf0b5c	-1.4925342
75	0x3e309d79	0.17247571
76	0x3d9b0d84	0.07570937
77	0xbdec143d	-0.11527298
78	0xbc6b04e5	-0.014344429
79	0xbcbce7c4	-0.023059733
80	0xbe691829	-0.22763123
81	0xbe0accac	-0.13554639
82	0x3e4ec192	0.20191029
83	0x3d7ef73b	0.062247496
84	0xbc280240	-0.010254443
85	0xbe29c8db	-0.16580527
86	0x3bd2e131	0.0064355363
87	0xbe235996	-0.15952143
88	0xbdcd7ef3	-0.10033979
89	0x3e34045a	0.17579785
90	0x3d84aa4f	0.06477796
91	0xbdc35e40	-0.09539461
92	0xbe296599	-0.16542663
93	0xbd935415	-0.07193772
94	0x3da5329e	0.08066295
95	0xbed74c98	-0.42050624
96	0xbe05c734	-0.13064271
97	0xbe1c9bf6	-0.1529387
98	0xbd8044e0	-0.06263137
99	0x3e1a4e39	0.15068902

20 f4 [5, 1]
0	0xbe8a643d	-0.270296
1	0xbe015a9c	-0.12632221
2	0xbecbd473	-0.39810523
3	0x3ff346f2	1.9006026
4	0x409bcdf6	4.8688917
