ModelArtsPy38/model/model/model_weights.pt (torch, 3743 bytes, 5 tensors)

linear_relu_stack.0.weight f4 [20, 10]
00000000: 8a8b 35be a0aa eebc f000 023e c189 87be
00000010: 28a8 013e f671 a1be 26fe 4c3e 2856 88be
00000020: 3936 c93b e051 7d3c cc19 ae3c 3d37 43be
00000030: d8f6 35bd 186e 543e 3807 bcbd 7340 603e
00000040: 1f8b 96be 41fe 3dbd e394 29bd f0cb b83c
00000050: 316e 663e 35be a6bd 7f93 18bc 23f6 8c3e
00000060: 091d c0bd f877 24bd 3878 8cbe 3f3d 113e
00000070: d485 4cbe 3753 7fbe 82f0 303e 50e4 68be
00000080: 41c2 34be 6012 973d cd52 843e 0ea0 5b3e
00000090: 2aa9 99be 5364 95be b245 343e 5fa5 6bbe
000000a0: 79f6 8b3d 18b4 613e 12e9 913c 306c 0cbd
000000b0: 866b 463e 4e67 43be b154 4dbe d6fb 04be
000000c0: 3984 9b3e 6171 91bd fb9c 85bd d47b 373e
000000d0: 984a 163e 7f37 eb3d d78b 363e a6c4 9abe
000000e0: 5e38 0d3e a6df 10bd 9baa 073d 3386 9ebc
000000f0: 5061 ebbd 2e21 813e 1366 8cbe abe4 a23d
00000100: aef6 4f3e 8477 3cbe 75a4 1bbd 6ad9 81bb
00000110: 778f 26be fab9 11b9 2075 163e fa3a 943e
00000120: de94 213e be3d 853e 2e8f 8bbe ae36 7bbe
00000130: 51c1 23bd 23de 29bd 2f88 9bbd 8722 6dbe
00000140: 1d22 bb3d 5605 aebd f293 46be 19d2 823e
00000150: 700c 2d3e e3b1 66be 8627 763e 582a 013e
00000160: ecc9 88be 34bf 97be 7dcd 943e e694 653e
00000170: 9b2b 1bbd e8d3 90bd 0d4b 6ebe 50b1 3cbc
00000180: c064 efbc 4608 a0be 3b3b 75be 6952 9ebc
00000190: 30cb 03be 3f91 c13e 11bf 37be 707b a23e
000001a0: ef28 19be 4060 f5bd 9f21 c53d f619 04bc
000001b0: 607a c6be 61f3 c03d 0922 873e 05a8 fc3d
000001c0: 6df1 1ebc dc28 8bbe 87d6 533d b7aa 3cbd
000001d0: 065d 063e 1ce4 e2bd be93 5ebe 252a 4c3e
000001e0: 4d95 14be 3ad9 7fbd 8720 fbbd d8b8 503e
000001f0: 1c02 40be 253b f9bd 6c96 e63d f291 b7bc
00000200: 495a 9ebd 4477 a1bc bbde 68bc 4521 b9bd
00000210: f736 a93d 5039 3a3e 84c9 1abe 557c 573e
00000220: 8a22 223e 6f0b 5d3d c9e6 9ebe c021 7e3c
00000230: aa52 1cbe 413f 56be 5cdd be3d 9474 3ebe
00000240: d56a a1be ae27 423e a479 c3bd 5c93 67be
00000250: 0095 babc 4c8c cd3d 7bc3 18be ed32 47be
00000260: 34c5 ff3d d43b b93d d69d 38be 5384 df3d
00000270: 341c 55be 8c1d e03d f30e 963e eff3 0c3c
00000280: eed6 1e3e a006 edbc 84ed 19be 0209 7e3e
00000290: f0f9 0bbd 59f2 893e ded0 74be f9a2 9dbe
000002a0: a750 1dbe d665 6ebe 409b 78bc 185c a73d
000002b0: 39cf 8fbe 8e60 593e a5ee dcbd a3c1 34be
000002c0: a26e 46be 7c0e b2bc df07 2b3e f995 c33d
000002d0: b435 c23d 98cc 7cbe 4c77 b03d 9077 ea3d
000002e0: 0096 62bc f898 5d3d daae 5a3e 149d 16be
000002f0: a08e 89be f92d 9a3e c98a 31be 2f1f 95be
00000300: ee35 5dbe e4ca e73d 0e92 6ebe 908e d93c
00000310: e45e 35be dde2 46be 42a8 e2bd 548a 88be
-0.17729011 -0.029134095 0.1269567 -0.26472285 0.12661803 -0.31532258 0.20018825 -0.26628232
0.006140497 0.015461415 0.021252535 -0.1906404 -0.04442486 0.20745122 -0.09181064 0.21899585
-0.29403016 -0.046385054 -0.041401755 0.022558182 0.22502972 -0.08141748 -0.00931251 0.27531537
-0.09380538 -0.040153474 -0.2743547 0.1418352 -0.19972926 -0.24934088 0.17279246 -0.22743344
-0.17652227 0.07376552 0.25844422 0.21447775 -0.30011874 -0.29178104 0.17604712 -0.23012303
0.0683412 0.22041357 0.017811332 -0.034282863 0.19376954 -0.19082376 -0.20051838 -0.12986693
0.30374315 -0.071017034 -0.06524082 0.1791833 0.14676893 0.114851944 0.17826782 -0.30228156
0.13791034 -0.035369538 0.033121686 -0.0193511 -0.1149317 0.25220627 -0.27421626 0.07953771
0.20308945 -0.18404967 -0.037998635 -0.0039626854 -0.16265665 -0.00013897559 0.14693117 0.28951246
0.15779445 0.26023668 -0.27257675 -0.24532577 -0.039979283 -0.04147161 -0.07594334 -0.23157702
0.09137366 -0.084971115 -0.19392374 0.25550917 0.16899276 -0.22528796 0.24038514 0.12613809
-0.26716554 -0.29638064 0.29063025 0.22420081 -0.037883382 -0.07071668 -0.23270817 -0.011516884
-0.029222846 -0.31256312 -0.23948376 -0.019326406 -0.12870479 0.37806126 -0.1794398 0.317348
-0.14957021 -0.11981249 0.09625553 -0.00806283 -0.3876524 0.09421421 0.26393154 0.12336735
-0.009701115 -0.2717961 0.05171826 -0.046061244 0.13121423 -0.11078665 -0.21736047 0.19937952
-0.14510079 -0.062463023 -0.122620635 0.20383012 -0.18750805 -0.12169484 0.112591594 -0.02240846
-0.07732064 -0.01971019 -0.014213259 -0.09039549 0.08262437 0.18185925 -0.15115935 0.21043523
0.15833488 0.053965982 -0.3103545 0.015510976 -0.15265909 -0.20922567 0.09319565 -0.18599159
-0.3152682 0.18960449 -0.095446855 -0.22614807 -0.022776127 0.10036525 -0.1491832 -0.1945302
0.124887854 0.090446144 -0.1802896 0.10913911 -0.2081154 0.109431356 0.2930828 0.00860308
0.15511677 -0.028933823 -0.15032011 0.24808124 -0.034173906 0.2694271 -0.23907802 -0.307884
-0.15362798 -0.23281035 -0.015173733 0.08171862 -0.28087786 0.21228239 -0.10787705 -0.17651992
-0.1937814 -0.021735422 0.16702221 0.095500894 0.09482899 -0.24687421 0.08616504 0.11448586
-0.013829708 0.05410096 0.21355763 -0.14708358 -0.26866627 0.301132 -0.17338099 -0.29125354
-0.21602604 0.11317995 -0.23297903 0.026557237 -0.17711979 -0.19422479 -0.11067249 -0.26668036

linear_relu_stack.0.bias f4 [20]
00000000: 702b b1bd d292 1c3e ad5a 2e3e 29ab 863e
00000010: 50f5 9c3e b91f cfbd 52e0 0abe 88a7 023e
00000020: 4b87 723e a1d4 83be 0b9a 373e 43b3 b2bd
00000030: 3c68 653e 1c65 5f3e 3d6f 9a3e eb70 3d3e
00000040: 3f6e 8c3e d68a 183e 708d cabc 2665 2d3e
-0.08650863 0.15290383 0.17026778 0.2630246 0.3065591 -0.101134725 -0.13562134 0.1275922
0.23684423 -0.2574816 0.17929856 -0.08725598 0.22403044 0.21815914 0.30162993 0.18500106
0.2742786 0.14896712 -0.024725646 0.16933116

linear_relu_stack.2.weight f4 [5, 20]
00000000: 566a 9dbd 5ca7 023d 714d 1abe 7bd0 4a3d
00000010: 3db6 fa3d 553e 6cbe d1d7 543d 7558 7fbd
00000020: 31c1 263e c640 813c 3516 373c 0355 7c3d
00000030: 7102 55be a13d 8f3c 60c2 4cbd e251 01bd
00000040: 3067 333e 7f8f b2bd dad6 3f3e 8aca 43be
00000050: f7e2 2abe d075 27be 058e be3d 8b0d 5dbc
00000060: 0c71 56be 202b b73d d9b1 6abd 9227 0b3e
00000070: 828a 2fbe 1d5e 38be 68f8 29be 5bb5 293e
00000080: b579 3ebe 7291 433e 5235 8abd 94b1 c2bd
00000090: 409f 413d 10a0 163e 8b3d dabd 7203 593e
000000a0: d0fa 8c3c 7218 49be 8651 68bd bce5 f13d
000000b0: 36b8 1a3e 2ace 2d3c 06bb 74bc 0509 cd3c
000000c0: 5880 c9bd 3cfd 413e eb2a b13d 52ec 2bbe
000000d0: ff04 613d b9e3 44be c5c2 e2bd 50d9 adbe
000000e0: be97 073e a832 dcbd 60dd 9a3d 207d ab3c
000000f0: 0a44 403e 53d3 19be 2d2f aa3c 72be 783c
00000100: 0a1e f13d 18db d6bd f0f6 b1bd c362 793b
00000110: 416a 8a3d 75aa fdbd 6210 33be 6a91 73bd
00000120: 2813 5bbe 45bf 453e 10fa a6bc 5de5 173d
00000130: f0aa 40be 88c0 ccbb f5e4 54be 0046 5c3b
00000140: 271a 26be 357f 433e 21b1 bc3d 04da 74bd
00000150: 8e90 40be ff4c de3b b101 dc3d 1810 113e
00000160: 4aa0 a53d 3ecc 16be 7da3 b23d cb54 a53d
00000170: 460c cebd 9af0 02be ccaa 45be 0912 85bc
00000180: f391 1bbe b5cc 743d f6aa 52be aa74 023e
-0.076862976 0.031897888 -0.15068604 0.04951523 0.122417904 -0.23070653 0.05196363 -0.06234022
0.16284634 0.015777957 0.011174728 0.06160451 -0.20801713 0.017485442 -0.049990058 -0.03157223
0.17519832 -0.08718776 0.18734303 -0.19120231 -0.16688143 -0.16353536 0.09304432 -0.013491998
-0.20941561 0.08943772 -0.057298515 0.13589314 -0.1714268 -0.18004651 -0.16598666 0.16573088
-0.18601115 0.19098452 -0.06748451 -0.095065266 0.047271013 0.14709496 -0.1065627 0.2119272
0.01720944 -0.19638231 -0.05671837 0.118113965 0.15109333 0.010608235 -0.014937168 0.025028715
-0.09838933 0.18944257 0.08650764 -0.16789368 0.054936405 -0.19227494 -0.110723056 -0.3395486
0.13241479 -0.107518494 0.07561755 0.020933688 0.18775955 -0.1502202 0.020774448 0.015182124
0.117733076 -0.104910076 -0.08689678 0.0038053251 0.067585476 -0.12386028 -0.17486718 -0.05946485
-0.21394026 0.19311245 -0.020382911 0.037083972 -0.18815207 -0.0062485375 -0.20790465 0.003361106
-0.16220914 0.19091494 0.09213472 -0.05977823 -0.18805143 0.006784081 0.1074251 0.14166296
0.08087213 -0.1472635 0.08722589 0.080728136 -0.10060935 -0.12787095 -0.19303435 -0.016243951
-0.15192394 0.059765536 -0.20573029 0.12739816

linear_relu_stack.2.bias f4 [5]
00000000: a9b5 b6bd 9865 553e 54e6 1a3e caeb 3cbe
00000010: 20c0 6ebe
-0.08921368 0.20839536 0.15126926 -0.18449321 -0.23315477

linear_relu_stack.4.weight f4 [1, 5]
00000000: 3b59 91be 8cdd 93be d91c 5b3e 57ba 1ebe
00000010: 5a7e 1b3e
-0.2838839 -0.28879964 0.21397723 -0.1550077 0.15184918
